checkpoint.pth (torch_old, 28405 bytes, 6 tensors)

0.weight f4 [64, 37]
000000 3b 80 46 bf 9f 86 98 3e 4f 61 c3 be 48 3e 22 3e
       -0.77539414 0.29790208 -0.38160178 0.15844071
000010 76 95 78 3f 58 6c 1b be e6 25 ea 3d 23 95 57 3d
       0.9710306 -0.15178049 0.1143301 0.052632462
000020 63 47 4e 3d be 62 6c 3e bd 7f 54 3c de 8f e2 bc
       0.05036105 0.23084542 0.012969908 -0.027656492
000030 f2 34 12 bd 79 ab 38 3d 88 b8 fc bc 80 a5 6a 3e
       -0.035695024 0.045085404 -0.03084971 0.22914696
000040 c1 9b b1 bd 65 40 90 be de aa 5e be 17 4c 34 be
       -0.08672286 -0.2817413 -0.21744868 -0.17607151
000050 91 21 e7 3d 09 62 86 bd a2 71 3d be 54 b0 53 3e
       0.11285699 -0.065616675 -0.18500379 0.20672733
000060 6c ad 98 be d4 8a f7 bb 05 33 73 bd 92 73 dc bd
       -0.2981981 -0.0075543914 -0.059374828 -0.10764231
000070 2a 0e 20 bf 28 d4 02 bf ac e9 72 bd 16 5d a4 3d
       -0.6252161 -0.51104975 -0.059304878 0.08025567
000080 b3 80 33 3e 35 5a 89 b9 ac 49 d9 3c b3 9e 1e bd
       0.17529564 -0.00026197886 0.026524387 -0.038725566
000090 4a a0 f1 bc e4 2f 10 3c ed 3a 0c 3d dc 87 77 3d
       -0.029495377 0.0088004805 0.034235884 0.0604323
0000a0 e3 43 0d 3e 41 06 fd 3d 79 16 11 3e cd 03 86 3c
       0.13795428 0.123547085 0.14168729 0.016359234
0000b0 57 4b 54 3e ee 91 14 3e 99 67 11 3d 84 8c 19 3f
       0.20731865 0.14508793 0.03549919 0.59980035
0000c0 40 ca 3d bf 1a f6 15 bf 76 31 32 bf 54 be 45 c0
       -0.74136734 -0.58578646 -0.6960672 -3.0897417
0000d0 87 00 aa 3b cc ea 20 3e a4 e8 fd 3d d3 1a 76 3e
       0.005188051 0.15714568 0.12397888 0.2403367
0000e0 65 b8 ef 3c 05 bd b8 3a fd 89 9d 3d 12 8d 29 3d
       0.02926273 0.0014094418 0.07692335 0.0413943
0000f0 d9 23 38 3e f1 55 f4 3d cd 58 1c bd 2b 05 b5 3d
       0.17982425 0.119304545 -0.038170625 0.08838876
000100 e5 a6 15 3d 6d 08 54 3b 84 5b 6d be 63 67 69 bd
       0.036536116 0.0032353655 -0.23179442 -0.056983363
000110 b1 5a 6b 3d 93 09 75 3d 15 8a 32 3e b7 df 1e 3e
       0.057459537 0.059823584 0.17435487 0.15515028
000120 a3 f4 ff 3c fe 6c 72 bc 44 d9 d3 bd 0c 45 6f bf
       0.031244582 -0.014796494 -0.103441745 -0.9346473
000130 f8 0b c0 3e 12 ff 3c bf 1f 6e 3c 3e 06 ee f6 3d
       0.3750913 -0.73826706 0.18401383 0.12057118
000140 a4 5b 2e bf d8 46 f1 bd 2b e0 80 bf 33 0c bf be
       -0.6810858 -0.117810905 -1.0068411 -0.37313995
000150 83 74 7c be 5b 5b 84 3d b3 e5 e4 be 1c 6c 88 bd
       -0.2465382 0.06462737 -0.44706497 -0.06661245
000160 2f e9 0c bf 13 39 e9 3d be ad 82 be 14 5d 0b be
       -0.5504331 0.11387839 -0.2552318 -0.13609725
000170 8a eb a1 be 3a ad 04 bf 13 c8 a6 be 04 ae c9 bd
       -0.31625015 -0.5182682 -0.3257452 -0.09847644
000180 73 34 c2 3e c8 4d 24 bf 55 94 de be d8 4d 02 be
       0.3793064 -0.64181185 -0.43472543 -0.12725008
000190 e6 51 36 bf 6c 9f 5f 3e 23 04 6a be ba a9 92 be
       -0.7121872 0.21838158 -0.2285314 -0.28645116
0001a0 1a ff 48 3c a1 a9 58 bf fb 1a 38 3e 35 89 a1 bd
       0.012267852 -0.84633833 0.17979042 -0.07887498
0001b0 dc 3f 1a bf c1 f5 97 3d c7 87 8e bd 20 b8 a3 bd
       -0.6025369 0.07419921 -0.06959491 -0.079941034
0001c0 5b c0 40 bc fa ea 9a be f1 93 88 bd 73 27 d7 bd
       -0.011764611 -0.30257398 -0.066688426 -0.10505571
0001d0 36 61 13 bf 5d 16 f4 3d 50 21 ac 3d 59 0c 31 3e
       -0.5757021 0.11918328 0.08404791 0.17289867
0001e0 17 fc 22 3e 4f 5e c4 bd b2 21 b3 be 44 11 6a be
       0.15916477 -0.095883004 -0.34986645 -0.22858149
0001f0 06 76 06 be 6b 3f 5c 3f 22 08 4b bf 51 a2 eb 3d
       -0.1313096 0.8603427 -0.79309285 0.11505569
000200 ed 5d 84 3c da c8 19 bf 90 4d 2b 3e 91 47 cc 3d
       0.016158069 -0.600721 0.16728806 0.09974588
000210 ae b4 54 bf f1 b5 7b 3e 61 e9 3b bf 56 7e a7 3e
       -0.83088195 0.24581124 -0.7340298 0.32713574
000220 dd 32 f9 be 3d 2d dd be 04 0f 85 3e bd 68 b7 3c
       -0.48671618 -0.43198577 0.2598802 0.02238881
000230 14 68 24 be a7 33 ea be ae 9f 92 be 1b d6 02 3d
       -0.16055328 -0.45742533 -0.2863745 0.031942468
000240 c0 1c 41 3e f0 dc 89 bc d0 3c 92 bd c2 14 99 bd
       0.18858624 -0.016828984 -0.07140505 -0.07474662
000250 68 3c c6 3c 4a fe 9b 3d 6c e3 11 3d 8c 35 b3 3d
       0.024198726 0.07616861 0.035617277 0.08750448
000260 0a 7e e6 3d 3a 2b 54 be bb 0f ac 3e a4 f8 91 3d
       0.11254509 -0.20719615 0.3360575 0.071275026
000270 82 2a 7d 3e f6 c0 54 3e f9 20 fa 3d 66 e9 57 3e
       0.24723247 0.20776734 0.1221332 0.21085128
000280 40 e7 3f 3e 4e a6 30 3d 16 58 77 bd cd ad 21 3d
       0.18740559 0.04312735 -0.06038674 0.03947239
000290 f5 13 ba 3c f8 16 22 bd 98 a8 2b 3d 61 53 ca 3d
       0.022714594 -0.039572686 0.04190883 0.098791845
0002a0 ac 51 57 bd ab 7d 35 bb 48 6a 8b 3d 29 e0 80 3e
       -0.052568123 -0.0027693312 0.06807381 0.2517102
0002b0 a3 f0 18 3e 40 50 c6 3e 02 06 8e bf a9 ca 40 be
       0.14935546 0.387331 -1.1095583 -0.18827309
0002c0 ab 3a 70 bf a5 70 61 c0 90 3e fb bd 91 a9 b2 3d
       -0.9383952 -3.5225003 -0.12267792 0.087237485
0002d0 c4 1f 89 3d 56 e8 39 3e 95 c0 01 3e a0 a7 73 3d
       0.06695512 0.18155035 0.1267112 0.05948603
0002e0 6a 5b 0f bc 59 09 9c 3e e2 7b 87 3e eb fa 5e 3e
       -0.008749822 0.30475882 0.26461703 0.21775405
0002f0 36 af 86 3e 01 cd 8e 3d 91 8e 51 3e 8a cb 83 3e
       0.2630555 0.06972695 0.20464541 0.25741225
000300 65 d0 85 3e 64 43 d5 3e 18 7d 0c 3f e0 94 07 3f
       0.26135555 0.41652977 0.5487838 0.5296154
000310 69 c0 7b 3c c2 62 f9 3d 93 fa 65 3d eb c7 b2 be
       0.015365698 0.1217704 0.05614717 -0.3491815
000320 64 3e 9b 3e 13 ab c6 3d bc ac 8a 3e 22 a7 83 3d
       0.30321038 0.097005986 0.2708491 0.064283624
000330 67 c2 8e bd fa c4 b8 3e 8c 5a 8e 3e 3c 45 75 3e
       -0.06970673 0.3608778 0.27803457 0.23952192
000340 21 95 8c 3c 8d 63 6c bc 2d ee 9a 3e d4 1c c4 3e
       0.017160954 -0.014428032 0.3025984 0.38303244
000350 d4 c4 46 3e 87 70 9f 3d 9b 62 3c bd ab c9 bd 3e
       0.19411021 0.07785135 -0.045992475 0.37067923
000360 7f c8 ea 3d 8c 40 4d 3e f4 8d ff bc ca 7b 5b bd
       0.11464023 0.20044154 -0.031195618 -0.05358485
000370 57 65 b3 bd cf d2 96 3c 90 68 44 3d 9f a0 1a 3e
       -0.087595634 0.018411068 0.04795128 0.15100335
000380 e2 96 07 3d f1 46 38 3d 34 25 00 bc 5b 88 16 3f
       0.033102877 0.04498953 -0.00782137 0.5880181
000390 e9 7b cf be f8 43 73 bf cd 57 81 bf 05 d4 17 c0
       -0.40524223 -0.9502559 -1.010492 -2.3723156
0003a0 c9 61 12 3e 2c f6 f9 3d 88 74 8a 3e 50 c3 8a 3e
       0.14295115 0.12205157 0.2704203 0.27102137
0003b0 a1 3c e9 bd ad 00 b5 3d be dd e5 3c 5f 12 49 3d
       -0.11388517 0.088380195 0.028059836 0.049089786
0003c0 d8 10 49 3c fd 3d 06 3d bd 5c 17 bd 99 00 01 3e
       0.012272082 0.03277396 -0.036953676 0.12597884
0003d0 73 5b 24 3e 10 60 4f bd 1b d3 b5 3d a5 0f 56 3e
       0.1605051 -0.05062872 0.08878156 0.20904405
0003e0 7a e3 ea 3d b0 81 2b 3e c9 8a 04 bc e3 de 81 be
       0.11469169 0.1674869 -0.00808973 -0.25365362
0003f0 2b 3c 01 3e 4d 4b 4d 3e 54 45 ab 3e c2 31 d2 3e
       0.12620609 0.20048256 0.3345133 0.41053587

0.bias f4 [64]
000000 54 3c 36 bd 2f 4d a7 bd 95 13 aa bd a5 18 94 bd
       -0.044491127 -0.081690185 -0.08304516 -0.07231263
000010 52 d0 13 3e 4b 98 f0 3e 44 6f a5 3e d8 92 a1 be
       0.14434937 0.4699119 0.3231145 -0.31557345
000020 44 48 98 3e a0 a3 0f 3e e7 bd b7 bd 3a 39 84 3d
       0.29742634 0.14027262 -0.08971768 0.064562276
000030 70 20 36 be 36 b2 92 3d 93 cc ca bd e7 a8 cf bd
       -0.17785811 0.07162897 -0.09902301 -0.101396374
000040 f2 23 1a bd 40 b0 e1 3c bb 73 b6 3d 65 6f 37 3d
       -0.037631936 0.027549863 0.089087926 0.04478397
000050 87 dd 33 3c 3f 4f 69 3d a6 06 1d 3e be 52 86 ba
       0.010978109 0.05696034 0.15334567 -0.0010248048
000060 e6 c1 31 bc ee 3d 7e 3d 24 bd 46 bd d1 07 27 be
       -0.010849452 0.06207078 -0.048520222 -0.16311575
000070 5f 8f 1e be 78 1b 34 bd e5 39 08 be 9e 87 69 bd
       -0.15484379 -0.04397151 -0.13303335 -0.0570141
000080 fa 04 8e be 3f 3b 76 3d d2 66 83 be c4 67 b0 be
       -0.27738172 0.060115095 -0.25664383 -0.34454167
000090 f8 f6 6e be b7 a8 6a 3d e8 4b 2c bd 82 de ba bc
       -0.23336399 0.057289805 -0.042064577 -0.022811178
0000a0 12 a7 57 3e 2d bc 36 3d 98 de ce 3d 1a 3c 0b be
       0.21059826 0.044613052 0.1010105 -0.13597146
0000b0 3a 7e 6a bd 35 6d ac bd de 75 c1 3e 40 86 01 be
       -0.057249285 -0.08419267 0.37785238 -0.12648869
0000c0 52 11 20 be f2 22 ed bd 52 ad c8 3d cf 2d f2 bd
       -0.15631607 -0.11578931 0.09798683 -0.118251435
0000d0 d9 89 06 bd 42 5a 6a 3e 70 50 21 3e cd fb a8 bc
       -0.032846306 0.22885993 0.1575334 -0.02062788
0000e0 e2 5a 18 bd db 45 c4 3d aa 0c f4 3d 44 27 55 be
       -0.037196048 0.095836364 0.11916478 -0.2081576
0000f0 4f ff 59 be d3 ab a0 3d c0 8a 0b bd cb 10 f2 3d
       -0.21288799 0.07845273 -0.03406787 0.11819609

2.weight f4 [64, 64]
000000 d1 d9 91 be 44 b7 d2 be 5a 56 65 3e cc 86 57 be
       -0.28486493 -0.41155446 0.22396222 -0.21047515
000010 72 50 c7 3e b4 16 8b be 44 c4 d7 3d c4 d0 06 be
       0.38928562 -0.2716576 0.105354816 -0.13165575
000020 ac 14 3f be b8 79 02 3c 4a f4 29 3e 34 05 87 be
       -0.1866023 0.00796359 0.16597095 -0.26371157
000030 ca 55 c7 3e 39 7d 27 3e dc fd 7e 3e eb 1e b5 be
       0.3893264 0.16356362 0.24901527 -0.3537515
000040 c9 dd b6 be dc cd ca 3c 21 78 bc bc 5d 9e b7 3e
       -0.35716084 0.024756365 -0.0230065 0.3586301
000050 b5 84 96 3d 25 45 1e be 1b 4c 75 be 41 b7 9c 3b
       0.073495306 -0.15456064 -0.23954813 0.0047825878
000060 aa 43 be be 53 e9 d0 bd 06 95 e4 3e 6d 57 b7 3e
       -0.37161 -0.10200753 0.44644946 0.35808888
000070 c7 62 1b be 03 68 11 bd 33 b5 d8 3d 87 b4 84 be
       -0.151744 -0.035499584 0.10581436 -0.2591898
000080 d8 47 04 3e de a0 fb 3b a6 78 7b be 95 6b b0 3d
       0.12918031 0.007679089 -0.24557742 0.0861427
000090 69 92 b8 3e 5e 7a 7c 3e 23 9f a6 be 14 00 ee be
       0.36049202 0.24656054 -0.32543287 -0.46484435
0000a0 82 b2 41 3d fd 43 23 bc db 1e 17 bd 9a fb 98 be
       0.04728938 -0.00996494 -0.03689466 -0.29879457
0000b0 a1 e5 e1 3d eb 78 8d bd 7f 53 3b bc 4e 53 82 3e
       0.11030126 -0.06907829 -0.011433481 0.2545418
0000c0 d2 cc 9c 3d 86 2b 7a be f8 23 a9 bd 05 36 6d be
       0.07656254 -0.24430665 -0.082588136 -0.23165138
0000d0 f4 60 04 3f de 27 b3 3c 6d dc 7a 3e 31 7e 9d 3d
       0.5171044 0.021869596 0.24498148 0.07690085
0000e0 64 a2 fc 3d 88 9e 70 bd c2 c9 14 3e 12 61 f1 3d
       0.12335661 -0.058744937 0.1453009 0.11786093
0000f0 64 3e 13 3c 07 bf 8a bf d5 18 d9 3c 88 58 4f be
       0.008987043 -1.0839547 0.026501099 -0.20248616
000100 36 79 d7 be 4c 8b 2e bf 87 e6 0d bf 23 be 97 3e
       -0.42084664 -0.681813 -0.5542988 0.2963725
000110 b3 ad a7 be c2 38 1b be 4c 37 d4 3e 30 12 87 be
       -0.3274971 -0.1515837 0.41448438 -0.26381063
000120 2d c6 3a 3b 56 9d 86 bf a2 34 0b bf fc 59 5a bc
       0.002849947 -1.0516765 -0.54377186 -0.013327118
000130 1e 89 02 bf 33 9e 84 be 36 44 5d 3e 02 4b a8 be
       -0.50990474 -0.25901946 0.21608052 -0.32869726
000140 33 ee a3 bd c4 9e 93 3e 99 8b af 3d aa d9 2a bf
       -0.08004417 0.28832066 0.08571548 -0.6673838
000150 ec 70 25 3e 76 39 16 bd b6 bd 85 be 99 c3 04 be
       0.16156358 -0.036675893 -0.261213 -0.1296524
000160 3f c9 d7 be 19 7d 8e be 43 42 ac 3e 53 4f 47 3f
       -0.42145726 -0.27829817 0.33644304 0.77855414
000170 8d 96 ef be 0c a9 a4 be cf df ab be bb e1 01 3e
       -0.4679455 -0.32160223 -0.3356919 0.12683766
000180 96 5b d9 3d 67 f7 41 bf 9b fb d5 3d 50 28 d7 3d
       0.10613172 -0.7576813 0.104483806 0.10505736
000190 bd 15 7d 3d ea b5 43 be ea 78 17 3e b4 aa 07 bf
       0.06178831 -0.19112363 0.14792219 -0.5299485
0001a0 17 ee f6 bc 35 ba 9b be 7b 05 46 bf 0b 31 81 3e
       -0.030142827 -0.30415502 -0.7735211 0.2523273
0001b0 88 b4 07 bf ba 2b 5e be ed 04 c6 bb e2 5f 53 3e
       -0.53009844 -0.21696368 -0.0060430677 0.20642045
0001c0 7a 95 0c 3e 85 fc 08 bb 5d 3c 81 be 70 5a 87 3d
       0.13728896 -0.0020902466 -0.25241366 0.066090465
0001d0 6f 95 ae 3d 15 76 bf be a6 25 a1 be e7 da c2 3d
       0.08524596 -0.37394777 -0.31474036 0.095144086
0001e0 f0 4c 84 3e cc 26 58 bd ef 41 c1 bd eb ac 22 bf
       0.2583995 -0.052771375 -0.09436404 -0.635451
0001f0 06 db a2 bd a5 70 7f 3e a6 f6 ac bd 5c fb 79 be
       -0.07951932 0.24945314 -0.08445482 -0.24412292
000200 57 44 b9 bd 72 44 c9 bd b8 46 29 bd a5 85 09 be
       -0.09046238 -0.09827508 -0.04132721 -0.13429888
000210 ac 1b 06 3f 63 38 88 bd ea d1 32 3d a8 18 da be
       0.52385974 -0.0665138 0.04365722 -0.42596936
000220 31 3f 80 be 5e 13 cb 3d 61 ab 5b be 90 da 02 bf
       -0.2504821 0.099158034 -0.21452095 -0.5111475
000230 fd 27 b8 3e 20 48 fe be d0 d6 23 3d 25 48 33 bf
       0.3596801 -0.49664402 0.039999783 -0.7003196
000240 dd 82 75 be 76 e6 2f be 59 eb b1 3d 00 c9 c2 3e
       -0.23975702 -0.17177758 0.08687467 0.38043976
000250 18 ad 0a bf de 49 a2 3e a3 44 82 bd 64 77 49 3d
       -0.5417037 0.3169698 -0.06360748 0.049186125
000260 77 99 80 be 51 18 93 bd 17 66 5c 3e b9 90 da 3c
       -0.25117084 -0.07182372 0.21523319 0.026680337
000270 3f 96 8a bd 52 f0 13 3e 83 96 b1 3d 83 dc aa 3d
       -0.067669384 0.14447144 0.08671286 0.083428405
000280 41 85 91 bc c9 a9 22 bd c6 40 27 be 20 5e 56 be
       -0.017763736 -0.0397127 -0.16333303 -0.20934343
000290 56 3a 82 3e 31 9a 74 bd 18 7d 07 3e a2 a4 92 be
       0.25435132 -0.05971736 0.13231313 -0.2864123
0002a0 69 24 0d 3f 83 17 94 be b6 83 ea 3e 01 05 00 3e
       0.5513368 -0.28924188 0.45803612 0.12501909
0002b0 87 b9 a5 3d 92 ec 0f ba b6 1c 46 be 2f ad ca bc
       0.08092027 -0.0005490269 -0.1934689 -0.024740783
0002c0 b2 c6 b0 bd c7 e2 48 3e d7 72 95 3e b9 95 36 3e
       -0.08631648 0.19617759 0.29189178 0.17830552
0002d0 8d 6c 65 bd e4 1f 81 3e ef da 43 3f db 1c 56 3e
       -0.056011725 0.25219643 0.7650594 0.20909445
0002e0 64 62 80 3d b3 05 6d bd 2e 22 4c bf c5 56 4a 3d
       0.062687665 -0.057866763 -0.79739654 0.049399156
0002f0 78 a7 7f bc 37 bc a2 be aa e1 83 3e 46 58 b9 3e
       -0.0156038925 -0.31784222 0.25758106 0.3620016
000300 6c 39 eb be 13 b0 7a be 12 fe 76 bc 80 09 9a be
       -0.45942247 -0.2448123 -0.0150752235 -0.30085373
000310 3e b0 60 bb 45 7c c0 3a 5f 5c 14 be ca fd 00 bf
       -0.0034284736 0.0014685473 -0.14488362 -0.5038725
000320 93 d0 43 3d a8 39 84 3d 2f 6d 81 bf e1 6f c8 3d
       0.047806334 0.064563096 -1.0111445 0.09786964
000330 d5 46 1d bf 9b 10 92 bf 85 b3 45 be 28 0a 53 bf
       -0.61436206 -1.1411318 -0.19306763 -0.8243737
000340 ea 4d 9a bf 1c 1a 29 be 46 11 06 bf 60 8e 8f bf
       -1.2055027 -0.16513866 -0.5237011 -1.1215324
000350 56 f1 e4 be 95 c1 35 bf 19 b1 bf be b5 00 22 bd
       -0.44715375 -0.7099851 -0.37439802 -0.039551456
000360 3f bc 4e bf 41 49 a9 be 8f 98 23 3f ee a8 45 bf
       -0.8075599 -0.330637 0.6390466 -0.7721089
000370 83 eb 5b bf 07 e6 c8 3e 65 d1 24 3d c4 0e 4b be
       -0.8590624 0.39237997 0.040238757 -0.19829851
000380 61 35 52 bf ea 7d f4 3c b3 19 05 be b9 5e 06 bf
       -0.821127 0.029845197 -0.12998085 -0.52488285
000390 71 cc 84 3e f2 f0 d6 3e df 1d 33 3e 56 e7 aa bf
       0.25937226 0.41980702 0.17491864 -1.3351848
0003a0 dc 12 dc 3c 23 fc ad 3e 05 e8 27 be 43 41 4b be
       0.026864462 0.33981428 -0.16397102 -0.19849114
0003b0 f2 63 dd 3e 35 4e 88 be 25 0c 52 be 9d 56 0b bf
       0.43240315 -0.26622167 -0.20512445 -0.54429036
0003c0 dc cd d9 be 6b 41 6d be 9c 4a 4e 3e b8 ce 82 bf
       -0.4253987 -0.23169486 0.20145649 -1.0219336
0003d0 ed a2 99 be 19 26 a6 be f3 16 e1 bd 1d 75 3f bf
       -0.30007115 -0.3245094 -0.10990705 -0.74788076
0003e0 d5 f5 5a bf 58 5a 8f be 06 91 eb 3e 32 39 5d bf
       -0.8553136 -0.27998614 0.46009082 -0.864154
0003f0 dc 0e 8e be 77 d3 ea 3e 6e d3 0b 3f 54 67 13 be
       -0.27745712 0.4586446 0.5461949 -0.14394885

2.bias f4 [64]
000000 32 9f bf 3e b7 06 78 be 61 68 c1 3d 22 6f 6e bd
       0.37426144 -0.24221312 0.09443737 -0.058211453
000010 5b 6d d4 bd 1f 69 ae 3e 0a 9c 5a 3f af 35 92 3e
       -0.103724204 0.34064576 0.85394347 0.28556582
000020 2f 85 88 bd b6 da 5b 3e 05 4d b3 bd c1 bb 59 3f
       -0.06666028 0.2147015 -0.08754925 0.85052115
000030 11 97 1c bc 1b f8 01 3f 42 b5 57 bd 9c a9 5c be
       -0.009557501 0.50769204 -0.052663095 -0.21549076
000040 e8 da ac bd 8c 8a bd 3d 36 98 99 3e 8c 83 a8 bd
       -0.084401906 0.09254941 0.2999894 -0.082282156
000050 59 93 24 3e 07 9d e3 be a6 75 c5 be 94 69 4a be
       0.16071834 -0.4445574 -0.3856632 -0.19766837
000060 f8 b5 1f 3e 32 5c 06 bd 6f 03 fa bd 4e cb ef 3d
       0.1559676 -0.032802768 -0.12207686 0.11708699
000070 d9 5d d4 ba fa bc 80 3e 7a 50 d9 bd 9d 23 15 be
       -0.0016202285 0.25144178 -0.10611053 -0.14564367
000080 2f d0 9e 3e c7 8c b6 bd 43 06 7d 3e 65 e3 0f be
       0.31018206 -0.0891357 0.2470942 -0.14051588
000090 7b c7 6c be 27 d4 b8 3e 68 c9 2c 3e 0e 90 fe 3e
       -0.23122971 0.3609936 0.16873705 0.4971928
0000a0 f4 76 7a be 13 f1 2b be 6d 8e 13 be 8c 90 86 be
       -0.2445944 -0.16791181 -0.144098 -0.26282156
0000b0 cc 8f 2d 3e 07 b7 65 3f e8 90 00 be ba d8 7a 3f
       0.16949385 0.897324 -0.12555277 0.9798695
0000c0 cc b0 d2 3d d4 34 25 3f fb ce 6d bc 1e ec e3 3e
       0.102876276 0.64533734 -0.01451468 0.4451608
0000d0 01 85 e1 3e 54 91 0e 3f 78 66 da 3e 17 6d 28 3d
       0.44046786 0.55690503 0.42656302 0.04111966
0000e0 42 1d cc 3d 44 b4 10 3f 15 94 05 be 07 d0 0c bd
       0.09966518 0.56525064 -0.1304477 -0.034378078
0000f0 d1 c9 de bc 02 9a 36 3e 1d 23 7f 3d e7 6d 01 be
       -0.027195843 0.17832187 0.062289346 -0.1263958

4.weight f4 [4, 64]
000000 94 b5 3c 3d c4 ba 7c 3e f7 e9 a1 3e 29 5c 11 bf
       0.046071604 0.2468062 0.31623814 -0.5678125
000010 7a 6c a2 3e 1a 8d 8d 3d 3b 7c 82 3e db 8d 24 3e
       0.31723386 0.069116786 0.25485405 0.16069739
000020 ff e2 a3 bd eb b4 97 3d ab 9c 29 3e f8 7b 84 3e
       -0.080022804 0.07407554 0.1656367 0.2587583
000030 75 7e 1d bf 99 df 92 3d 6b 44 00 3e cd cf 7d 3e
       -0.61521083 0.07171554 0.125261 0.24786301
000040 90 11 84 bd b2 ed 84 3d 61 18 15 bd 04 1e 1d 3e
       -0.06448662 0.06490649 -0.036400203 0.15343481
000050 d8 c9 e9 3e 21 44 01 be af 05 33 be 41 96 c5 3c
       0.45661807 -0.12623645 -0.17482637 0.024119498
000060 b5 44 83 3d cc ca 38 3e bd 45 82 3d 8c 69 a1 3e
       0.06409589 0.18046111 0.06360958 0.31525838
000070 83 6e 43 3e d5 08 84 3e 08 f3 2f 3d 63 59 5a 3e
       0.19085126 0.25787988 0.042956382 0.21323161
000080 50 77 8c 3d d1 d3 6e 3d 65 85 17 3d b0 bd 41 3c
       0.068586946 0.058307473 0.03699245 0.01182501
000090 54 68 06 be 72 f9 95 3c 25 f5 6f 3d f8 bc 40 3e
       -0.13125736 0.018307421 0.058583397 0.18822086
0000a0 fc be ac be ef 64 f3 bc a0 1b a4 bd 92 58 25 bf
       -0.3373946 -0.029711215 -0.080130816 -0.6458827
0000b0 ac 3a 49 be 8f 49 90 3e 7c f2 6c bd 59 b3 99 3e
       -0.19651288 0.2818112 -0.05784844 0.30019644
0000c0 11 98 69 bf ad fc 46 3c 81 51 1d 3e a3 69 47 3e
       -0.9124766 0.012145204 0.15363123 0.19473891
0000d0 6a 05 92 3d 23 18 53 3e 24 31 18 3d 69 68 f9 3d
       0.07129939 0.20614676 0.03715624 0.12178118
0000e0 ab 72 0e 3d 02 02 40 3e 0d 96 b9 bd 7a 66 05 be
       0.034777325 0.18750766 -0.09061823 -0.13027373
0000f0 65 5a fa bb 1b dc b9 3d 69 2b 8a bc 9c a4 96 3d
       -0.0076401704 0.09075185 -0.016866403 0.073556155
000100 d4 b4 aa 3c a2 be b5 3d f9 95 ac 3e 93 f7 d9 3d
       0.020838179 0.08874251 0.3370817 0.10642924
000110 6e 8a 11 be 4f bb 53 3e b9 4d c0 3e 77 f8 08 3e
       -0.14212963 0.20676921 0.37559298 0.13376032
000120 b8 0a 82 3d 3e 7c 0c 3e 04 3c 21 3f 7d c6 51 3e
       0.06349701 0.1371927 0.629822 0.20485874
000130 50 bb de bc ee 80 d7 3d 12 7b 55 be 45 46 50 3e
       -0.027188927 0.10522638 -0.20847729 0.20339306
000140 4b 24 7c 3d 1b 0f b9 3c a7 37 e7 3c b9 c2 2e 3e
       0.06155805 0.02259021 0.02822478 0.17066468
000150 cf d8 8a 3e 5b b6 ab be 4a 7a d2 bb 4c 2b a8 3d
       0.27118537 -0.33537564 -0.0064232694 0.08211383
000160 9f ef 87 bd 6d 55 e7 bb 6a 35 24 3d fd 53 8e 3e
       -0.06637501 -0.007059744 0.040090002 0.27798453
000170 10 6e 5c 3d 80 91 35 3d 90 1b ed bd 96 d6 29 bf
       0.0538159 0.044328213 -0.11577523 -0.6634306
000180 29 bc 1a bb 63 f1 ab 3d 41 06 65 3e 4c 5e 19 3d
       -0.0023610687 0.0839565 0.22365667 0.037443444
000190 73 61 87 bd 62 ca dd 3d 2e 54 5d 3e dd ed fd 3d
       -0.06610384 0.10829617 0.21614143 0.123988844
0001a0 f7 a6 3e be 3b 6f 1a bd d8 16 07 bf f7 3a e4 3c
       -0.1861838 -0.037703734 -0.5276923 0.027860148
0001b0 ce bb b1 3d 87 c4 24 3e c6 80 81 3d ca 21 a5 3e
       0.08678399 0.16090594 0.0632339 0.32252342
0001c0 79 58 b7 be 57 9c 07 3e b6 c1 7a be 2d 07 61 3d
       -0.35809687 0.13243233 -0.24487957 0.054938484
0001d0 fe a6 ff 3c 5d 7c 5d 3e 66 34 a2 b9 fc eb bb 3e
       0.031207558 0.21629472 -0.00030938088 0.3670348
0001e0 7e 76 57 be bd 97 50 3e 13 ba 99 bd 40 94 a8 3d
       -0.21041295 0.20370384 -0.07506194 0.082314014
0001f0 6f b8 97 bd 8f b1 7f 3e dd 42 5a 3d 45 57 d4 3d
       -0.07408225 0.24970077 0.053286422 0.10368208
000200 43 36 95 3e 71 75 bc 3d 97 cc 26 3b 34 23 25 3d
       0.2914296 0.09202088 0.0025451535 0.040316775
000210 6f 65 2f 3e c3 4c 09 bc a8 75 a2 3e 87 6d 9e bc
       0.17128538 -0.008380118 0.3173039 -0.019339336
000220 7c 31 b4 bc f8 95 0b bc ae 30 96 be 71 80 aa 3e
       -0.021996252 -0.008519642 -0.29334015 0.33301118
000230 2f e3 05 bf f1 30 04 3e ea d7 5c 3d a2 e0 a7 be
       -0.5229978 0.12909295 0.05391685 -0.3278857
000240 04 1a d7 3d 4a 84 c1 bd f6 9b b7 3d bc 9d 91 3d
       0.10503009 -0.0944906 0.08965294 0.071101636
000250 82 77 d9 3d 42 50 5f be e3 4d e0 3d 68 e9 ac be
       0.106184974 -0.2180796 0.10952356 -0.33771825
000260 3c 16 b6 3d 82 92 2c bf 85 b1 de be bf 3f 89 3e
       0.088909596 -0.67411053 -0.43494812 0.26806447
000270 e3 cf 1b bf 30 6f 11 3e b1 d2 2b bd 48 85 17 be
       -0.60864085 0.14202571 -0.041948978 -0.14796937
000280 a5 f1 23 3e fa 31 22 bc f7 9b ec 3d a0 09 51 3d
       0.16010149 -0.009899611 0.115531854 0.05103457
000290 7b c7 6b 3e 9a 00 1a 3e 4f 11 58 3e 45 8e ad 3d
       0.23025315 0.15039292 0.21100353 0.084744014
0002a0 25 12 5a be e8 c2 42 39 5a c2 cf 3e 9a 85 78 be
       -0.21295984 0.0001857389 0.40577966 -0.24269715
0002b0 61 3e 0c 3d f8 1f 55 3e b7 2d 08 3e 9c 1d 76 3e
       0.034239177 0.20812976 0.13298689 0.24034733
0002c0 b0 d2 96 be 23 e7 44 3e 5b 28 c6 3e d4 43 ec bc
       -0.29457617 0.19228797 0.38702664 -0.028840937
0002d0 af 5d 39 3e 62 fc 4c 3e b1 48 39 3e bf 5f 06 3f
       0.18102144 0.20018151 0.18094136 0.52489847
0002e0 cb 10 16 bf f4 49 58 3e 1f 90 bb bd 13 08 73 bc
       -0.58619374 0.21121961 -0.09158348 -0.014833468
0002f0 bf c4 e0 bc 13 4a 0f bd 31 19 c2 bd c7 62 14 3e
       -0.027437566 -0.034982752 -0.09477461 0.14490806
000300 5c f7 0c 3e 0a 34 47 bc 5d 27 88 3e 3f ac f6 3d
       0.13766235 -0.012158403 0.26592532 0.12044572
000310 a9 19 4b 3e ea ef 21 3e e3 3b 87 3e c5 9a 1c 3e
       0.19834007 0.15814176 0.26412877 0.15293415
000320 03 50 f2 3d cd c2 4d 3e 19 a1 85 bd 33 6e 6f 3e
       0.11831667 0.20093842 -0.065248676 0.23381881
000330 4f f1 5a be 96 28 b7 3d 04 8e c8 be 4b 61 23 3e
       -0.21381114 0.08943288 -0.3917085 0.15955083
000340 bd 3e 81 be 2f 6f 7b 3e e1 9a 49 be 5c 20 c4 3d
       -0.25243178 0.24554132 -0.19687988 0.095764846
000350 bb 08 c8 3e c6 1b cc bd 30 84 89 3d e0 da b9 bd
       0.3906916 -0.09966235 0.06714666 -0.0907495
000360 20 a7 af be ed fd 0f 3e 2f e6 8c be db b3 8c bd
       -0.34307194 0.14061709 -0.27519366 -0.06870242
000370 15 a9 51 3e cb 9e cd 3d c1 ae 8c 3d c4 e1 7f be
       0.20474656 0.10040053 0.06869269 -0.24988467
000380 cf c8 97 3d 9e 42 8e 3d f0 54 70 3e 9a db be bd
       0.07411348 0.069463 0.23469901 -0.093192294
000390 7a 0b 9e bd ad 24 d7 3d de 28 fd 3e b3 3d cc 3d
       -0.07717033 0.10505042 0.49445242 0.09972706
0003a0 7c be 80 bd 00 9d 08 3e f9 a9 0d 3e c0 16 2d be
       -0.06286332 0.13341141 0.1383437 -0.1690321
0003b0 57 2e 91 3e 40 0c 92 3e 65 ea 02 bc 14 50 87 3e
       0.28355667 0.2852497 -0.007990454 0.26428282
0003c0 4a a2 57 be e5 38 39 3e 03 52 a8 3d f7 b9 22 bd
       -0.21058002 0.1808811 0.082187675 -0.03972813
0003d0 8b 0c f2 3d 5e a1 9c 3d 24 02 58 3d 50 ab 88 3d
       0.11818799 0.07647966 0.052736416 0.066733
0003e0 6e f7 24 3e 95 28 55 3e 92 aa a5 3d 73 78 52 bd
       0.16110012 0.20816262 0.08089174 -0.0513844
0003f0 aa 4e 7f be bf 5a 64 3d 9a bb ee 3d b2 9d 9a 3d
       -0.24932352 0.055750605 0.11656876 0.07549609

4.bias f4 [4]
000000 2d f7 36 3f 80 3a 12 3f 8b c8 0e 3f 5e 79 36 3f
       0.7147091 0.57120514 0.55774754 0.7127894
